weight.npy (npy, 221384 bytes, 1 tensors)

array f8 [3073, 9]
0	0x3fc2a44430bd2e53	0.1456380117400494
1	0xbfb058adfadf22d3	-0.0638531434516481
2	0x3fe120edf080ffd3	0.5352697083799235
3	0xbfb3db7305070c88	-0.07756728050940087
4	0xbfc68d63c9c05d4b	-0.17618987418311813
5	0xbfd1c9f19323886f	-0.27795066231750004
6	0xbfd31a844686902d	-0.29849345099705965
7	0xbfc4cdbf4d809191	-0.16252890857971328
8	0x3fd5cc8bbe3ea7bc	0.34060948923672263
9	0x3f8723c93582f97a	0.011298725076241512
10	0x3f7d52b8e475a1eb	0.007158968196883535
11	0x3fc1e98547014124	0.1399389836028685
12	0xbfa4a1b3b5bf81f2	-0.04029618829349947
13	0xbfabde66150fa3d0	-0.054431142874655
14	0xbfad7cf2543b1461	-0.05759389188964615
15	0xbfa9dbd69c01ff80	-0.05050535826103353
16	0xbf8d7eb6f05652ba	-0.01440184517813613
17	0x3fc5b1eac32e3f75	0.1694920971899553
18	0xbf91c53c886be16e	-0.017353959871770845
19	0x3fa631343c2a6425	0.043344147056992
20	0x3fbbaa334affb48d	0.10806580143953877
21	0xbfa6313e8bc1575f	-0.04334445434567046
22	0xbfaa5da43fa6a83b	-0.051495678682230005
23	0xbfac68c3e19f282b	-0.05548679474993919
24	0xbfb54bb6cf886b87	-0.08318655554505315
25	0xbf9a3138b6ecfaa5	-0.02557839027871957
26	0x3fbde6ceb2079aaa	0.11680309149196924
27	0xbfa80696dc78b3ce	-0.046925272381805536
28	0x3f9fee903dbaa859	0.031183484809539006
29	0x3fbfffeeaa31f040	0.12499896674302224
30	0xbfa1d9f9ae79056e	-0.03486614470285586
31	0xbfad29b1899f714f	-0.05695872120824907
32	0xbfab25e5bc30fdbb	-0.053023509237842124
33	0xbfb214d779e7eca9	-0.07063051916331865
34	0xbfa0da0d0df71da7	-0.03291359706377799
35	0x3fb69fb0d1ab4335	0.08837418669578485
36	0xbfab570389f61e1d	-0.053398237792006344
37	0x3fa4acf60b2f0ed7	0.0403820885326504
38	0x3fbf9598669d95d1	0.12337639336836694
39	0xbfa830da919c027c	-0.04724772479494718
40	0xbfb0b132ef04f094	-0.06520384154731779
41	0xbfab8bb186844774	-0.05380015151071307
42	0xbfa77f83d27109bc	-0.045894736708322864
43	0xbf9e2b5013585460	-0.029462100201346764
44	0x3fbab4a34ffebedc	0.10431881621365896
45	0x3f782166ea535590	0.005891229641937015
46	0x3fb4875c0724ff91	0.0801904218142211
47	0x3fb107a28e2148d8	0.06652275056811463
48	0xbf78b998c5b958d6	-0.0060363738699235805
49	0xbfaaaf84b471abb3	-0.052120348955973304
50	0xbfb1a882fb528ac3	-0.0689775336818839
51	0xbf9eb344dfc4309a	-0.029980732114424848
52	0xbfa948566dd320f7	-0.04938001719125567
53	0x3fa0ecdff50e3d60	0.03305721155549679
54	0xbf7e8f48d2504379	-0.007460865458612236
55	0x3faaca3dddebd309	0.052324231472004774
56	0x3faf64e67454ffec	0.06131668253010489
57	0xbfb2f4a4836973f6	-0.0740454502897164
58	0xbf9cdc838cdbdbed	-0.02818494364961659
59	0xbfaccf2470185a90	-0.05626787060116556
60	0xbfb17db0742066e3	-0.06832411608811699
61	0xbfa3f98d2da25a4c	-0.03901330167825687
62	0x3fb09a10d0d9e0ca	0.06485085581687425
63	0x3f935a1c87a55536	0.01889843538204624
64	0x3f82eaf1fb912134	0.009237184991562765
65	0x3fb6a63b0c42a132	0.0884739785129838
66	0xbfa4d6b709a5c1a7	-0.04070064537779965
67	0xbfa90e9e051eef77	-0.04893964588651916
68	0xbfa8ec890a319e0c	-0.0486796212142587
69	0xbf9ef52dbaaf5751	-0.030232157248824724
70	0xbfa2171516fa1520	-0.035332354597850335
71	0x3fbb279b53406777	0.10607310087689635
72	0x3f9402a31cdafe42	0.01954130996341364
73	0x3f9b536a95362c72	0.026685395581392553
74	0x3fbb03350cb8c55e	0.10551768837537653
75	0xbf812c7258669785	-0.008385556528832225
76	0xbfb69d518b63f249	-0.08833799031339952
77	0xbfa0914dec5c5c8f	-0.03235858450187223
78	0xbf4ef25bea3e0fa5	-0.0009444187930829252
79	0xbfa1ffd3c7bb4146	-0.0351549321472953
80	0x3fa8c6678a41838e	0.04838870585150011
81	0xbf84824424dc1ea0	-0.010014088034508817
82	0x3fa8465a98258d96	0.04741175753840847
83	0x3fc11c326ff1c705	0.133673004780171
84	0x3f818484666d40ac	0.008553537727181336
85	0xbfacd9c4a229aadf	-0.056348938746699544
86	0xbfb6e6773c80e4aa	-0.08945412852416959
87	0xbf8f9af0d70cb0a9	-0.01543224483756263
88	0xbf99f9209878d78b	-0.02536440783133957
89	0x3fb33432e8853698	0.07501524140135485
90	0xbf8022be3b5c24b8	-0.007878767191430533
91	0x3f9b3506ef72b1d7	0.0265694697997548
92	0x3fc4bf79365e8e9b	0.16209330706361844
93	0xbfafe6f64cb6a586	-0.06230897604411738
94	0xbfa6251373642b5e	-0.0432516172750954
95	0xbf9883c48acf8e88	-0.02394015404924102
96	0xbf8f36fbf87b0241	-0.015241592903636138
97	0xbf9a14807f7c7f49	-0.025468833714625636
98	0x3fb58b29f533fb68	0.08415472256090839
99	0xbf4348590901c450	-0.0005884585134606855
100	0x3fa96af2110cbd01	0.0496440549671835
101	0x3fc0bb02392f33a2	0.13070705215650685
102	0xbf955eee382b5fc0	-0.020869943788824008
103	0xbfae4c0234741c01	-0.05917364969541695
104	0xbfa4d2a6aefd1466	-0.04066964040843217
105	0xbf9835ec76d3eaec	-0.02364320254580836
106	0xbfa250d8761f4a88	-0.03577305261537328
107	0x3f88f985cf5dbeb0	0.012194676771940166
108	0x3f919b51e174f5a5	0.017194060693545805
109	0x3fa7704acc33f9c3	0.04577859633171812
110	0x3fb8186344c12f1e	0.0941221278055164
111	0xbf3c64a16bcc1ca8	-0.0004332441420022517
112	0xbfac21019d9ac18c	-0.054939318169434065
113	0xbfaf5cf7d76547cb	-0.061256165545855966
114	0xbf8a8598b5002472	-0.012950127624224293
115	0xbf933a75e69d6d9c	-0.01877769680082296
116	0x3fa0e6f99e2ab047	0.033012199933495405
117	0xbf9555bff370f6b7	-0.02083492205951273
118	0x3f95ac5a8b32f258	0.02116528963664374
119	0x3fb44ac9e8a028d8	0.07926618508659844
120	0xbf9bce0f9f336f4b	-0.02715324792084965
121	0xbfabb01163a8b2c4	-0.05407766667881256
122	0xbfa4852efd627796	-0.040078609877340174
123	0xbf97c46aee94f791	-0.023210211574443532
124	0xbf86652e164c66b5	-0.010935173087591602
125	0x3fb77c12bb7764db	0.0917369563752745
126	0xbf9ee3d4c2296a31	-0.030165981627172826
127	0x3fb1ea2bc1f1a63c	0.06997941479644337
128	0x3fb5aaf22080cb71	0.08463967603237933
129	0xbf75c4a7a23defed	-0.005314497775426458
130	0xbfaff3066e2cb487	-0.06240100951104304
131	0x3f22793ea7c8b600	0.00014094247662070625
132	0xbf97db45d8f9f7d4	-0.02329739701098517
133	0xbf93f1fb2ecae159	-0.019477772456157314
134	0x3fa9476210a69327	0.04937273457770735
135	0xbf8383e7acd19a8e	-0.00952893253470435
136	0x3fac30b5d3ed9d3e	0.05505912982953952
137	0x3fac352d38c694a5	0.05509320562422574
138	0xbf9809c1e99d2db9	-0.023474721797624307
139	0xbfafea287078fbc2	-0.062333358506740946
140	0xbf9cd4ac0ba72cb1	-0.02815502949833321
141	0xbf902130790ea57d	-0.015751607311960115
142	0xbf7c315277b64b54	-0.006882974757348521
143	0xbf62baf3af1cb140	-0.0022864112333051134
144	0xbf8440e6dcd80129	-0.009889415373436865
145	0xbf67afbfbf1fb252	-0.002891420846017825
146	0x3fc0d7992bbfba6f	0.1315795386903633
147	0xbf993f8bc97051e2	-0.02465647141441874
148	0xbfa277f90e2d9ab9	-0.036071570378046265
149	0xbfad87ab40d30941	-0.05767569700539577
150	0xbfb0b08f46019ad0	-0.06519408663880744
151	0xbfa81f3759b6a1bb	-0.047113160802215025
152	0x3fb66db1b6fa85a5	0.08761130063296337
153	0xbf5ad69232a4581c	-0.0016380717957580398
154	0x3fab240b7e6c1dac	0.05300937574616724
155	0x3fb323a5d7495222	0.07476269250884873
156	0xbf90d485d9bffecd	-0.01643571034946838
157	0xbfa3d227f76e6055	-0.03871273894691344
158	0xbfab93ed1a1fa240	-0.05386296218768338
159	0xbf8a7fe7a41f80e7	-0.012939271637094808
160	0xbfb00681471aa2af	-0.06259925828875156
161	0x3fa25ef1666b4281	0.03588060736877186
162	0x3f8d9e37f2ef1a3d	0.014461934186226983
163	0xbf58ad1e523e0fb0	-0.0015061184030580148
164	0x3fb51ba6d88fe3c4	0.08245318209800617
165	0xbf99b25b5c1084fb	-0.025094439977810783
166	0xbf8bcf314525cd54	-0.013578782007903335
167	0xbfa776ac0e586aab	-0.045827271224159936
168	0xbf5115ab908094aa	-0.0010427642282675822
169	0x3f809d34c8591a04	0.008112346996438376
170	0x3f9dd7842601e78c	0.029142441577711106
171	0xbf9aabd86e0d95ba	-0.026046163289171288
172	0x3f915d5e58f8c195	0.016957735233690114
173	0x3fc152c72f5c4fe3	0.13533868610886576
174	0xbf68432fb980ad71	-0.0029617244836310165
175	0xbfb2460ea26a1651	-0.07138148751445185
176	0xbfacdb12cc6ebe53	-0.056358897643232674
177	0xbfac0afa7c49ab20	-0.054771258994909866
178	0xbfb3e19cd674bd1c	-0.07766132579557844
179	0x3fafa4c9fa235a75	0.061804115089832225
180	0xbf8964bf63c6263a	-0.012399192077981448
181	0x3fa8dc3430a227c8	0.048555022179314344
182	0x3fb92a95459de04e	0.0983060164415985
183	0xbf83a6dbb292fc2e	-0.009595600497389691
184	0xbfa8c9670f9b1c7d	-0.048411579756753455
185	0xbfa778f64f331356	-0.04584474293509426
186	0xbf7e0a387e85893c	-0.007333965950552742
187	0xbf83f6d4d0c86e9b	-0.009748137113141644
188	0x3fa4f9c07b32f3ac	0.04096795562643449
189	0xbf64bac34ef8e6c4	-0.0025304617518287793
190	0x3faed8385a47b43c	0.0602433786587899
191	0x3fbe08e9226468e5	0.11732346620229668
192	0xbf866b49dd1a6c52	-0.010946824131045006
193	0xbfb001ba02ee1ecb	-0.06252634593522115
194	0xbfa2f4767c74cae3	-0.037021353428277747
195	0xbf7419d0c3848f17	-0.0049074320634508095
196	0x3f463834c9c7d4a0	0.0006780870203885354
197	0x3f982ab927e0b4ec	0.02360047632116828
198	0x3f8dc9c8fc47f740	0.014545030783661539
199	0x3fa49c4bbdbf9451	0.04025494281067011
200	0x3fbfeb03fda6ffba	0.12467980330165931
201	0xbfaaed4b36db4fed	-0.05259165806424435
202	0xbfb4eed0748603f1	-0.08176901669322924
203	0xbfa5ae28ee3551cd	-0.04234435947242652
204	0xbfa418b8e2dae08b	-0.03925111550546586
205	0xbf8dfc4fa6bddfc8	-0.014641401554157954
206	0x3fa4165dd4ce3592	0.0392331430694909
207	0x3f73d865ec819102	0.004845045223280888
208	0x3fb3ce8c5f0367d1	0.07737042731915202
209	0x3fc1b118d6babc61	0.13821707234226024
210	0x3f8b1e74c3d9c779	0.013241684176339185
211	0xbfa058e960c97101	-0.03192834192734218
212	0xbfb3eb805b46b238	-0.07781221607610511
213	0x3f839eb21e4e5d7d	0.009580031919354632
214	0xbfb0fe4336edf638	-0.0663797387223547
215	0x3fb144b2b746047b	0.06745449995470836
216	0x3f70444356201948	0.0039713507012549346
217	0x3fbc7664e5c56ada	0.11118155107162
218	0x3fb95784ecbad0d2	0.09899168757948765
219	0xbfa3c830ef17f05d	-0.038636712251872686
220	0xbfacb948e7f847c7	-0.05610111076033735
221	0xbfa711265e7a16d7	-0.04505271819384198
222	0xbfa31b54b962cbe0	-0.03731789362918625
223	0xbfa55c67ecd5f097	-0.04172062650738544
224	0x3f9579550b9cbadd	0.020970658143762633
225	0xbf7c35cf26f3ed34	-0.006887253940699712
226	0x3fafbdee22e2acc7	0.06199592758033528
227	0x3fbe2c0ed7ed4e12	0.11785977145819285
228	0xbfa31358a614ca7b	-0.037256975434861915
229	0xbfb68c65be943988	-0.08807979491050422
230	0xbfacd0180409c8ce	-0.05627512978834802
231	0xbf9c05317e87b75f	-0.02736356100825021
232	0xbfaa8dfeb00f57c0	-0.05186458491486645
233	0x3f9542e6612201e7	0.020763015440481338
234	0x3f97577165878132	0.022794505903108227
235	0x3fa791cdfa5ca253	0.046034275829076286
236	0x3fb4f558162bc1e2	0.08186865369112398
237	0xbf95a87ca9c81e2c	-0.021150539267209265
238	0xbfb476e92ee02ea5	-0.0799394359057098
239	0xbf8e250ea0954e0f	-0.014719118381129296
240	0xbfa56fead406598d	-0.041869486219343256
241	0xbfa7d9fab2a803df	-0.04658492499220989
242	0xbf797029b20a0686	-0.00621048247615053
243	0xbf6b9134ae01186e	-0.003365137949034972
244	0x3fb65055d3b47af6	0.08716331881121761
245	0x3faf6680a2d40777	0.06132890689515496
246	0xbf9ea30a56fe007a	-0.02991882472952099
247	0xbfa485686eff6ea2	-0.04008032183602707
248	0xbfa16a7e8c7637cf	-0.03401561226483773
249	0x3f78523fe665eee0	0.005937814339968844
250	0xbf9663a444bf2984	-0.021864477821318853
251	0xbf89adb0ebf5eabf	-0.012538320733019302
252	0xbf1cfdfe03b9b9c0	-0.00011059630281249396
253	0x3f999116731ae8be	0.024967528129061327
254	0x3fc8e07dc6d8ed3b	0.19435093125671607
255	0xbfa9578bdd35fa6a	-0.0494960505993632
